rl/model/model.pth (torch, 17216 bytes, 4 tensors)

linear1.weight f4 [256, 11]
0	0xbead6d9a	-0.33872682
1	0xbe2cd741	-0.16878988
2	0xbb1f45f6	-0.0024303175
3	0xbf1bde95	-0.6088651
4	0x3eea29f1	0.45735124
5	0xbf199ae3	-0.60001963
6	0x3e6ad214	0.22931701
7	0xbf106066	-0.5639709
8	0xbe34005f	-0.17578267
9	0xbf84e746	-1.0383079
10	0x3de75535	0.11295549
11	0xbeb4f647	-0.35344145
12	0xbe3ab517	-0.18233143
13	0xbec6418a	-0.38721877
14	0x3ec0089e	0.37506574
15	0x3e40880d	0.18801899
16	0x3d23ce03	0.03999139
17	0x3e46f0ac	0.19427747
18	0xbe95b63a	-0.2924059
19	0xbea2d33f	-0.31801793
20	0xbe14e408	-0.14540112
21	0x3b2373d4	0.0024940865
22	0x3e9f4aba	0.311117
23	0xbe3d0750	-0.18459821
24	0x3f4f4abf	0.8097343
25	0xbca4be38	-0.020110235
26	0x3d0b96e7	0.03407946
27	0x3d5bb2f8	0.053637475
28	0xbe899a6b	-0.26875624
29	0xbe402930	-0.18765712
30	0x3df88b03	0.121358894
31	0xbe9f61c6	-0.31129283
32	0xbe084c42	-0.1331034
33	0xbd3f1ca3	-0.04665817
34	0x3df6a051	0.12042297
35	0xbe1e3e05	-0.15453346
36	0xbd8ec96e	-0.069720134
37	0x3e1099af	0.14121126
38	0x3d8f3eee	0.06994425
39	0x3e1f7994	0.15573722
40	0xbdff2c78	-0.124596536
41	0xbdbdf96e	-0.092760906
42	0xbdc6e202	-0.09711076
43	0xbda2412f	-0.07922589
44	0x3eb4df69	0.35326698
45	0xbf163c56	-0.58685815
46	0x3ebffbde	0.37496847
47	0xbe1f930b	-0.15583436
48	0x3d967bb4	0.07347813
49	0xbdbbf231	-0.09177054
50	0xbe237560	-0.15962744
51	0x3e3e1c86	0.18565568
52	0x3c00c602	0.007859709
53	0x3d38a692	0.04508073
54	0x3e20c01d	0.15698285
55	0xbdedcbff	-0.11611175
56	0xbe589962	-0.21152261
57	0xbda07427	-0.07834654
58	0xbe91c734	-0.28472292
59	0xbdf6ab0a	-0.12044342
60	0x3d8b9a63	0.06816556
61	0x3cbed311	0.023294004
62	0xbd957986	-0.072985694
63	0x3e2f3614	0.17110473
64	0x3d2d8f2d	0.04237287
65	0x3d44e5bf	0.048070665
66	0xbe9b9567	-0.30387422
67	0x3d931687	0.07182031
68	0xbd5d2efd	-0.05399989
69	0x3e4dbbc8	0.20091164
70	0xbf131f40	-0.5746956
71	0x3e4c0762	0.19924691
72	0xbe134562	-0.14381936
73	0x3d53b9d2	0.051690884
74	0xbf30f4e9	-0.69123703
75	0xbd98d6fb	-0.07462879
76	0x3eb3e0f5	0.35132566
77	0xbe090841	-0.13382055
78	0x3f001812	0.5003673
79	0xbe2dc0da	-0.16968098
80	0xbf32d956	-0.6986288
81	0xbf52c7de	-0.82336223
82	0x3ef1e40c	0.47244298
83	0x3eb2f342	0.34951216
84	0xbea396e0	-0.31951046
85	0xbf069b7b	-0.52580994
86	0x3f0e95b6	0.5569719
87	0x3f1950c8	0.5988889
88	0x3e4f479b	0.20242159
89	0xbf114d34	-0.5675843
90	0xbe8b889d	-0.27252665
91	0x3efb77d1	0.4911485
92	0xbf110f08	-0.5666356
93	0xbdb50986	-0.08839707
94	0x3d36cf90	0.04463154
95	0x3e697b9e	0.22801062
96	0xbf24a246	-0.6431011
97	0xbe91889a	-0.2842453
98	0xbe4e1a84	-0.20127302
99	0x3f09f30e	0.538865
100	0x3e6bb393	0.23017721
101	0x3d82e88d	0.06392012
102	0xbd9b0a62	-0.0757034
103	0xbe143ed4	-0.14477092
104	0xbe5f4875	-0.21804984
105	0xbd9f38da	-0.077745155
106	0x3ee509c7	0.44734022
107	0x3f11fc91	0.5702601
108	0x3f1e18e3	0.61756724
109	0x3f045c5a	0.5170342
110	0xbd7ef727	-0.06224742
111	0x3e40605b	0.18786757
112	0xbf1932ca	-0.5984312
113	0x3e4095f3	0.18807201
114	0xbed5495c	-0.4165753
115	0x3e3ae278	0.18250453
116	0xbe71cf90	-0.23614335
117	0x3e0be30f	0.13660835
118	0xbead116f	-0.33802363
119	0xbf172893	-0.59046286
120	0x3e84d886	0.25946444
121	0xbd3a9aa0	-0.04555762
122	0xbed9eab2	-0.4256187
123	0x3f40d535	0.7532533
124	0xbde990b5	-0.11404554
125	0xbe74cff3	-0.23907451
126	0xbca1ed42	-0.019766454
127	0x3e4673d4	0.19380122
128	0x3e7a65b0	0.24452853
129	0xbde5d152	-0.11221565
130	0x3dc35c95	0.09539143
131	0x3e583397	0.2111343
132	0x3e3123ab	0.17298763
133	0xbac0512c	-0.0014672629
134	0xbee62e83	-0.4495736
135	0xbe275925	-0.163426
136	0xbe7089c4	-0.23490053
137	0xbed06e6b	-0.40709242
138	0x3eb2fe16	0.34959477
139	0xbf4814d4	-0.7815678
140	0xbea16a0b	-0.31526217
141	0x3ed41f5a	0.4143017
142	0xbe89dfa0	-0.26928425
143	0x3d6de072	0.058075376
144	0x3ed012a1	0.40639213
145	0x3d14a040	0.03628564
146	0xbe6edbdc	-0.23326057
147	0xbd26e39d	-0.040744413
148	0xbd272bd2	-0.040813275
149	0xbeb8b72f	-0.36077258
150	0x3f15901d	0.58423024
151	0x3e9d4180	0.30714035
152	0x3ef1d797	0.47234794
153	0x3f158eb7	0.5842089
154	0xbd543926	-0.051812313
155	0xb99a7959	-0.0002946358
156	0xbd8742f1	-0.06604565
157	0xbe764585	-0.24049957
158	0x3ef3ee71	0.47642854
159	0xbecd32dd	-0.40077868
160	0x3ef18272	0.47169834
161	0xbf183d15	-0.59468204
162	0x3e255b36	0.16148075
163	0xbeeb7618	-0.45988536
164	0x3eafb380	0.34316635
165	0xbefe57b5	-0.4967629
166	0x3e9968f4	0.29962885
167	0xbcff2220	-0.031144202
168	0x3d1f39f3	0.038873624
169	0xbd8c59e6	-0.06853084
170	0x3e8cdfc5	0.27514473
171	0x3e5f0852	0.21780518
172	0xbec74603	-0.38920602
173	0xbf17fe9f	-0.59372896
174	0xbe299b12	-0.16563061
175	0x3ce65317	0.028115792
176	0x3e8f8821	0.28033546
177	0xbcb5f03e	-0.022209283
178	0x3d9fd7d7	0.0780484
179	0x3ec4740e	0.38369793
180	0x3d8bea2d	0.06831775
181	0xbe3c9b48	-0.1841861
182	0xbf02c785	-0.5108569
183	0xbebb7b08	-0.36617303
184	0xbcd19179	-0.025582062
185	0x3e8217fa	0.25408918
186	0x3f1ae155	0.6050008
187	0xbe28bd20	-0.16478395
188	0xbd2fdecf	-0.042937096
189	0x3df06454	0.11737886
190	0xbcfcebf3	-0.030874228
191	0xbe1b6828	-0.15176451
192	0xbddaa4af	-0.10675942
193	0xbe149f38	-0.14513862
194	0x3d3f5284	0.046709552
195	0xbe840298	-0.2578323
196	0x3e2c1851	0.16806151
197	0xbdb8d9b2	-0.09025897
198	0x3f0b96ae	0.54526794
199	0x3da34804	0.0797272
200	0xbf17fb21	-0.5936757
201	0x3df32f91	0.11874307
202	0x3eafc405	0.3432924
203	0xbe87140f	-0.2638249
204	0xbe5386de	-0.20656916
205	0x3c3ee62f	0.01165156
206	0xbe9e35b0	-0.30900335
207	0x3e9abdb8	0.3022287
208	0x3e9b5b3a	0.30343038
209	0xbed7d3a9	-0.4215367
210	0x3f71b94f	0.94423383
211	0xbd83d998	-0.06437987
212	0xbed565a6	-0.41679114
213	0x3eb5d1bb	0.35511574
214	0xbd7bf2f6	-0.061511002
215	0xbecd01a3	-0.4004031
216	0xbe971829	-0.2951062
217	0x3e0bb6a7	0.13643895
218	0x3ec15da9	0.3776677
219	0xbe1da06c	-0.15393227
220	0xbd332cb1	-0.043743793
221	0xbe9cfdda	-0.30662423
222	0xbd6c3557	-0.057668056
223	0x3eb74259	0.35792807
224	0xbef0ab04	-0.47005475
225	0x3ea5ab6d	0.3235735
226	0xbf0768a2	-0.5289403
227	0xbe04cd30	-0.12968898
228	0xbf039414	-0.51397824
229	0xbd37667c	-0.04477547
230	0xbf31e344	-0.69487405
231	0xbca6b3a1	-0.020349326
232	0xbed20ccd	-0.4102539
233	0x3cdcef84	0.026969679
234	0xbed0ed15	-0.4080588
235	0x3ee3da07	0.4450228
236	0x3eab6458	0.33474994
237	0xbed4f32c	-0.41591775
238	0xbef38f56	-0.47570294
239	0x3e9fce12	0.31211907
240	0xbf0c6891	-0.54847056
241	0xbe967ca5	-0.2939197
242	0x3dde8e34	0.10866967
243	0x3f17a594	0.5923703
244	0xbf296efa	-0.6618496
245	0x3ca29004	0.019844063
246	0xbdd230a4	-0.10263184
247	0xbdcb9cf7	-0.09942048
248	0xbe1771ec	-0.14789551
249	0x3e3da104	0.18518454
250	0x3dce92ea	0.100866154
251	0x3e0872a0	0.13324976
252	0x3eaa4289	0.33253887
253	0x3de1f614	0.11033264
254	0xbe083eed	-0.13305254
255	0x3dbcb59a	0.09214325

linear1.bias f4 [256]
0	0x3ee52a49	0.44758824
1	0x3f9c23b9	1.2198402
2	0xbd4c8001	-0.04992676
3	0xbe4c6624	-0.19960839
4	0xbee2a319	-0.4426506
5	0xbe962113	-0.2932211
6	0x3ed87b88	0.42281747
7	0xbe0a4330	-0.13502192
8	0x3d9cb286	0.07651238
9	0xbeda62fc	-0.42653644
10	0xbe2b5946	-0.16733274
11	0xbe7b9ad6	-0.24570784
12	0xbe0b1dcb	-0.13585584
13	0xbe94c4b0	-0.2905631
14	0x3d4e453d	0.050359
15	0x3da4ea6f	0.08052527
16	0xbd2f714a	-0.04283265
17	0xbe9c793a	-0.3056124
18	0xbe6a17cb	-0.22860639
19	0xbe238099	-0.15967025
20	0x3ec493b2	0.38393933
21	0xbd7d25e8	-0.06180373
22	0xbe055c47	-0.13023482
23	0xbebdf859	-0.37103537
24	0xbe1b5474	-0.15168935
25	0xbe1d2eaf	-0.1534984
26	0x3e12048e	0.1425955
27	0xbe3e3af9	-0.18577184
28	0xbe65d9da	-0.22446385
29	0xbd891881	-0.06694127
30	0xbde24245	-0.11047796
31	0x3d82c478	0.0638513
32	0xbedc2d7e	-0.43003458
33	0xbdb57be5	-0.08861522
34	0xbd8456d8	-0.06461877
35	0xbe2d16bf	-0.16903208
36	0xbe421cda	-0.18956318
37	0xbf0db7af	-0.55358404
38	0xbe8fe09b	-0.28101048
39	0xbebc6d64	-0.36802208
40	0xbe7d3e5e	-0.24730822
41	0x3ba4989c	0.0050230753
42	0x3e147dc8	0.14501107
43	0xbeaeecd5	-0.34165064
44	0x3d04bb44	0.032405153
45	0xbcee0f38	-0.029059991
46	0x3ad98259	0.0016594633
47	0xbd16c5fe	-0.036809914
48	0xbd300761	-0.042975787
49	0x3da06d78	0.078333795
50	0xbe6c7723	-0.23092322
51	0x3effde53	0.49974307
52	0x3e90439a	0.28176576
53	0xbe3fd320	-0.18732882
54	0xbe2ec7c2	-0.17068389
55	0x3e27edf0	0.1639936
56	0xbe96f04c	-0.29480207
57	0xbda44bd6	-0.08022277
58	0xbddfec25	-0.10933713
59	0xbe944674	-0.2896
60	0xbee7a477	-0.45242664
61	0xbec47c52	-0.383761
62	0xbea014c5	-0.31265846
63	0xbe07e66e	-0.13271496
64	0xbebf2f4c	-0.37340772
65	0xbe3ce10a	-0.1844522
66	0xbdd04cf3	-0.10170927
67	0xbed72f09	-0.42028072
68	0x3ee46310	0.4460683
69	0x3dc69280	0.096959114
70	0xbe39aabd	-0.18131538
71	0x3eaa2464	0.3323089
72	0xbe2862e2	-0.16443971
73	0xbea38331	-0.3193603
74	0xbd4aa126	-0.04947009
75	0xbe47b1eb	-0.19501464
76	0xbf015beb	-0.5053088
77	0x3db56092	0.0885631
78	0xbeb3693e	-0.3504123
79	0xbe8da0b4	-0.2766167
80	0xbe89d5fd	-0.26921073
81	0xbef1e2d6	-0.47243375
82	0xbef632e4	-0.480857
83	0x3e7d1137	0.24713598
84	0xbe9e4848	-0.3091452
85	0xbec2c169	-0.38038185
86	0xbedc224d	-0.4299492
87	0x3da6c3fc	0.0814285
88	0x3f00f41b	0.50372475
89	0x3e50ae55	0.20379002
90	0xbe248df6	-0.16069779
91	0xbec18b68	-0.3780167
92	0x3ead468a	0.3384288
93	0xbd28ba77	-0.04119345
94	0xbe90206d	-0.2814974
95	0x3e9e7e9b	0.30955967
96	0xbe4466da	-0.1917986
97	0xbea59f6d	-0.32348195
98	0xbe18d3be	-0.14924523
99	0xbe0f116a	-0.13971487
100	0xbe9b4da8	-0.30332685
101	0xbe538631	-0.20656659
102	0x3dcdee2b	0.100551926
103	0x3d59159d	0.052999128
104	0x3f06750f	0.5252237
105	0xbeafff0b	-0.3437427
106	0x3e9b1b42	0.30294234
107	0x3dfe00ea	0.12402518
108	0xbe74f359	-0.23920955
109	0xbe98feff	-0.29882047
110	0x3ea1eb3f	0.3162479
111	0xbe7770b5	-0.24164088
112	0x3e363027	0.17791806
113	0xbe8491a9	-0.2589238
114	0xbeff9819	-0.4992073
115	0xbe70edd7	-0.23528229
116	0x3e0c5eec	0.13708085
117	0xbe934122	-0.2876063
118	0x3eefcb1a	0.46834642
119	0xbe070f56	-0.13189444
120	0xbd35ae3a	-0.04435561
121	0x3e5f3ddd	0.21800943
122	0x3e0029d1	0.12515952
123	0x3eda0fe5	0.42590252
124	0xbe8888b0	-0.26666784
125	0xbd399bdf	-0.045314666
126	0xbebdc64b	-0.37065348
127	0xbdd91716	-0.106001064
128	0x3f378c57	0.71698517
129	0x3d214dba	0.039380766
130	0xbe69a0ed	-0.22815295
131	0xbed816f8	-0.42205024
132	0xbe8de129	-0.27710846
133	0xbe2c7103	-0.16839986
134	0xbdc3f570	-0.09568298
135	0xbcfe31f9	-0.031029688
136	0x3e092b76	0.13395485
137	0xbed09dde	-0.40745443
138	0xbe5497b1	-0.2076099
139	0xbe3ac8bd	-0.18240638
140	0x3e42e0a3	0.19031005
141	0xbeb541ca	-0.35401756
142	0x3e20c1ee	0.15698978
143	0xbe3e94db	-0.18611471
144	0xbed2c4ae	-0.4116568
145	0xbe284b0b	-0.16434877
146	0xbf0ebe58	-0.5575919
147	0xbe85cff6	-0.26135224
148	0x3e378305	0.17921074
149	0x3e1992e7	0.14997445
150	0xbe5500a1	-0.20801021
151	0xbe6a34f2	-0.2287176
152	0xbdf61b00	-0.120168686
153	0xbe39c41b	-0.18141215
154	0xbe793877	-0.24337946
155	0xbcfe8796	-0.031070512
156	0x3ef06884	0.4695474
157	0xbdf4c608	-0.11951834
158	0xbe983735	-0.2972962
159	0xbd917442	-0.071022525
160	0xbeb4508b	-0.352177
161	0xbd1edc68	-0.038784415
162	0xbeb2d1a1	-0.3492556
163	0xbe165cf1	-0.14683892
164	0xbe883fce	-0.2661118
165	0xbdc088a3	-0.094010614
166	0xbece9bf6	-0.40353364
167	0x3d49aa99	0.04923496
168	0x3c828b3c	0.015935533
169	0xbe88bb54	-0.2670542
170	0xbed40f82	-0.41418082
171	0x3eab9729	0.33513764
172	0xbe97ec77	-0.29672596
173	0xbec4ac49	-0.38412693
174	0xbe82e3e1	-0.25564483
175	0xbe66b343	-0.2252932
176	0xbf108aec	-0.5646198
177	0xbe6e4970	-0.23270202
178	0xbdf3a7ce	-0.118972406
179	0xbe977fb9	-0.29589632
180	0x3eea186a	0.4572175
181	0xbec26d93	-0.37974223
182	0xbda217e1	-0.07914711
183	0xbe88ea0e	-0.2674107
184	0xbf011c07	-0.5043339
185	0xbdac36ff	-0.08408927
186	0x3f1821bd	0.5942648
187	0x3c675af0	0.014120802
188	0x3ef2dfb1	0.47436288
189	0xbe633d0e	-0.2219126
190	0xbeca1ab6	-0.39473504
191	0xbef36690	-0.47539186
192	0xbe40c6be	-0.18825814
193	0xbe908c4f	-0.28232047
194	0xbe791d7c	-0.24327654
195	0x3d9e46a7	0.077283196
196	0xbea9ca57	-0.33162186
197	0xbe24dbe0	-0.160995
198	0x3e902afb	0.28157791
199	0xbe52c984	-0.20584685
200	0xbe8c44b0	-0.27396154
201	0xbec08041	-0.3759785
202	0xbee9403a	-0.45556813
203	0xbe89ba0f	-0.26899764
204	0xbe31e076	-0.17370781
205	0xbc936a9a	-0.017995168
206	0xbeea67e8	-0.457824
207	0xbe2f3763	-0.17110972
208	0xbd6a700a	-0.057235755
209	0xbdb06b41	-0.08614207
210	0xbe93aeae	-0.28844208
211	0xbdc96476	-0.098336145
212	0xbe9bf9f5	-0.3046414
213	0xbd9fd280	-0.078038216
214	0xbe22b068	-0.15887606
215	0x3cd30a0a	0.025761623
216	0x3de00dbe	0.10940121
217	0xbe5c8acf	-0.21537326
218	0xbd688301	-0.05676556
219	0xbe8073ef	-0.2508845
220	0xbe78d985	-0.24301727
221	0xbebd1824	-0.3693248
222	0x3dc6a876	0.097001
223	0xbe8be627	-0.2732403
224	0xbdd91cd6	-0.10601203
225	0xbe1f5ece	-0.15563509
226	0xbdad7bbb	-0.08470865
227	0xbe217bd2	-0.1576989
228	0xbef5418d	-0.47901574
229	0xbe01269e	-0.12612388
230	0xbeb40fd1	-0.35168317
231	0xbe6831e3	-0.2267528
232	0xbe72797b	-0.23679154
233	0x3fae96c1	1.3639756
234	0xbe834aa0	-0.25642872
235	0xbe8243a0	-0.2544222
236	0xbd93b146	-0.072115466
237	0xbf02c552	-0.51082337
238	0xbe9b1b7c	-0.30294406
239	0xbe9acd6a	-0.30234843
240	0xbe516b4e	-0.2045109
241	0xbe990051	-0.29883054
242	0xbe00d3e2	-0.12580827
243	0xbe8ef773	-0.27923164
244	0xbecc1ab9	-0.39864138
245	0x3f3a92b6	0.72880113
246	0xbe449bb2	-0.19200018
247	0xbe996fc7	-0.29968092
248	0x3e8c142c	0.2735914
249	0xbda0134b	-0.0781618
250	0xbe08acaf	-0.13347124
251	0xbea14d5a	-0.31504327
252	0x3dae6be0	0.08516669
253	0xbe90bfe7	-0.2827141
254	0xbe51e86b	-0.20498817
255	0xbe8f9496	-0.2804305

linear2.weight f4 [3, 256]
0	0x3ef0d9d8	0.47041202
1	0x3ebdc77b	0.37066254
2	0x3d3f5cd3	0.046719383
3	0xbd8cae05	-0.06869129
4	0x3bf00791	0.0073251207
5	0x3da0b25e	0.07846521
6	0x3ef44fa0	0.47717
7	0x3f2a40a5	0.6650489
8	0x3e20855c	0.15675873
9	0xbee4d7f3	-0.44696006
10	0x3d61f9d3	0.05516989
11	0x3d0a3922	0.033745892
12	0xbeacbf61	-0.3373976
13	0xbe92ac10	-0.28646898
14	0x3eeef269	0.4666932
15	0x3df1b1d4	0.11801496
16	0xbea7ee0f	-0.32798812
17	0xbc116627	-0.008874453
18	0xbe565666	-0.20931396
19	0x3e48e5fa	0.19618979
20	0x3ea8bc5e	0.32956213
21	0x3e06e6ee	0.1317403
22	0x3c8de6fb	0.017322054
23	0xbcace420	-0.021104872
24	0xbe954871	-0.2915683
25	0xbec16f87	-0.377804
26	0x3e079a6c	0.13242501
27	0x3c3f0fcf	0.011661484
28	0xbe7096d5	-0.23495038
29	0xbee2e3ad	-0.44314328
30	0x3dac2d20	0.084070444
31	0x3e0fc73f	0.1404085
32	0xbe85d4c5	-0.26138893
33	0x3c93424c	0.017975949
34	0x3e6f1c64	0.23350674
35	0xbf4a40db	-0.7900521
36	0xbd5110a8	-0.051041275
37	0xbe10baca	-0.14133754
38	0x3ba8c042	0.005149872
39	0xbe220ba4	-0.15824753
40	0xbcf953dc	-0.030435495
41	0x3d86eaca	0.06587751
42	0x3ed186ee	0.40923256
43	0xbd8fa479	-0.070137925
44	0x3f2e7b78	0.6815715
45	0x3ea601a4	0.32423127
46	0xbe963cd2	-0.29343277
47	0x3cb11df7	0.021620734
48	0xbe8ecec6	-0.2789213
49	0xbe3ee0a6	-0.18640384
50	0xbca47e30	-0.020079702
51	0x3e71357e	0.23555562
52	0x3edc705d	0.43054476
53	0xbc173c53	-0.009230691
54	0x3d4882cc	0.048952863
55	0x3ebe1e80	0.37132645
56	0xbd55dc9e	-0.05221235
57	0x3bab4404	0.005226614
58	0x3e273c19	0.16331519
59	0xbd0d6354	-0.034518555
60	0xbcb7ce3a	-0.022437204
61	0xbc06a2ca	-0.008217523
62	0xbf13572f	-0.57554907
63	0xbf19c796	-0.6007017
64	0xbda25250	-0.07925856
65	0xbf433a04	-0.762604
66	0x3c7ec312	0.015549438
67	0xbe20b158	-0.15692651
68	0x3f019712	0.5062114
69	0xbcda279f	-0.026630221
70	0x3e70139f	0.23444985
71	0x3e13f2eb	0.14448135
72	0xbbae3a55	-0.0053170123
73	0x3b0d5188	0.002156349
74	0xbefb0533	-0.49027404
75	0xbdb50459	-0.0883872
76	0xbe521331	-0.20515133
77	0x3e30570e	0.17220709
78	0xbea9b925	-0.33149067
79	0xbda3972d	-0.07987819
80	0xbe159664	-0.1460815
81	0xbeb9460a	-0.36186248
82	0xbe674cc8	-0.22587883
83	0x3e943e32	0.289537
84	0xbd6e9af8	-0.05825326
85	0xbc9b0079	-0.018921124
86	0xbcfcb905	-0.030849943
87	0x3d1d8186	0.0384536
88	0x3ed3c065	0.41357723
89	0x3df8f1d1	0.12155498
90	0xbd6eb6a6	-0.058279656
91	0x3cbde034	0.023178197
92	0x3ebb1191	0.3653684
93	0xbca9a589	-0.020708816
94	0x3bf58c99	0.007493567
95	0x3e49960b	0.19686143
96	0xbc371d93	-0.011176485
97	0xbc845bce	-0.016157057
98	0xbe5b0cbe	-0.2139158
99	0x3c3893df	0.011265724
100	0xbd2811bf	-0.04103255
101	0x3ae23dfa	0.0017260902
102	0x3e83e565	0.25760952
103	0xbdc70164	-0.09717062
104	0x3ed8ea7d	0.423664
105	0xbe216004	-0.15759283
106	0x3e621911	0.22079875
107	0x3eb3ff2a	0.35155612
108	0xbe3cebeb	-0.1844937
109	0x3d8379b7	0.064197
110	0x3f10c3a9	0.56548554
111	0xbc884cc4	-0.016638167
112	0x3e9135f6	0.2836148
113	0xbd3cbe44	-0.04607989
114	0xbca84b11	-0.020543607
115	0x3be2d626	0.006922501
116	0x3e2bb800	0.16769409
117	0xbd084b02	-0.033274658
118	0x3e189f8e	0.14904615
119	0x3c73e99a	0.014887238
120	0xbc8f29be	-0.017475959
121	0x3efda688	0.49541116
122	0x3d56e254	0.052461937
123	0x3dbf5e0c	0.0934411
124	0xbe2242b1	-0.15845753
125	0xbec26a59	-0.37971762
126	0x3d285635	0.04109784
127	0x3ddd7bb6	0.108146116
128	0x3e8adb02	0.27120215
129	0xbef5cc0b	-0.48007235
130	0xbcc091a8	-0.023506954
131	0xbcb328b1	-0.02186999
132	0x3d2b7002	0.041854866
133	0xbdc8c495	-0.0980312
134	0xbeeec963	-0.4663802
135	0x3e42bbcf	0.19016956
136	0x3a451d25	0.00075192965
137	0xbe0f6548	-0.1400348
138	0xbeab9c5b	-0.33517727
139	0xbe6ba958	-0.23013818
140	0x3ec3480f	0.38140914
141	0x3c6a5dcc	0.0143045895
142	0x3d87c2a2	0.0662892
143	0xbd7da03b	-0.061920386
144	0xbe44fdcf	-0.19237445
145	0xbf30592c	-0.68886065
146	0xbe87f1f6	-0.2655179
147	0x3dde766c	0.10862431
148	0xbe71bb65	-0.23606642
149	0x3ea6c52a	0.325723
150	0xbf126dc6	-0.5719875
151	0xbde155ad	-0.110026695
152	0xbee78f28	-0.45226407
153	0xbebcad2a	-0.36850864
154	0xbe096110	-0.13415933
155	0xbecdce43	-0.40196428
156	0x3f0c9455	0.54913837
157	0xbe829198	-0.25501704
158	0xbdd320ab	-0.10308965
159	0xbf15b3bc	-0.5847738
160	0x3c6dab19	0.014506125
161	0xbcbaab84	-0.022786863
162	0xbb49c203	-0.0030785806
163	0x3e3b5931	0.18295743
164	0xbe0c8f1a	-0.13726464
165	0x3d83edb0	0.0644182
166	0xbc85a40b	-0.016313573
167	0xbead3e18	-0.33836436
168	0xbe2ee380	-0.17078972
169	0x3d470c49	0.0485957
170	0xbe4d9c5b	-0.20079176
171	0x3f039eb5	0.5141404
172	0x3cc0970e	0.023509528
173	0x3cb92893	0.022602355
174	0xbb873fc0	-0.0041274726
175	0xbebfc2f7	-0.37453434
176	0xbecf89e1	-0.4053488
177	0xbdb28a89	-0.0871783
178	0x3e7b92e9	0.2456776
179	0xbd69659c	-0.056981668
180	0x3f050ca1	0.51972395
181	0xbca5da26	-0.020245623
182	0x3ccc1de6	0.0249166
183	0x3b7adff6	0.0038280464
184	0xbd166947	-0.036721494
185	0xbeb213c6	-0.3478071
186	0x3e49c902	0.19705585
187	0x3d76fac9	0.06029776
188	0x3e605c7c	0.2191028
189	0xbe7d58d0	-0.2474091
190	0xbd0bb440	-0.034107447
191	0xbcb5a0cf	-0.022171406
192	0x3e5b88d2	0.21438912
193	0xbe33313b	-0.17499249
194	0xbd1bef95	-0.03807028
195	0xbeb47cbc	-0.35251415
196	0x3c976ecd	0.018485451
197	0x3e5b8a8a	0.21439567
198	0x3eac8aeb	0.33699736
199	0xbe14c7a3	-0.1452928
200	0xbd5c5c1a	-0.053798772
201	0x3c98fb6d	0.018674577
202	0x3cb27145	0.021782527
203	0x3d844169	0.064577885
204	0xbe07604e	-0.13220331
205	0xbf06f53a	-0.52717936
206	0xbe4193be	-0.18904015
207	0xbec85522	-0.3912745
208	0xbdcb915d	-0.09939835
209	0x3e87ea85	0.26546112
210	0x3ba7dcd1	0.005122759
211	0xbeb6806b	-0.3564485
212	0xbe759f6e	-0.23986599
213	0x3b154a99	0.002278006
214	0xbd9ee3d0	-0.077582955
215	0x3ee02827	0.43780634
216	0x3eab251a	0.33426744
217	0xbd8ca285	-0.06866936
218	0x3e7b82ed	0.24561663
219	0xbd6f4462	-0.058414824
220	0xbba65f37	-0.0050772685
221	0xbdc8e0d1	-0.09808505
222	0x3e0cdd29	0.13756241
223	0xbc20bddf	-0.009810894
224	0x3b9c24e0	0.004765138
225	0x3abc1e40	0.0014352277
226	0xbe8d8c44	-0.27646077
227	0xbd3be488	-0.04587224
228	0xbbac7cf8	-0.005263921
229	0xbe503917	-0.20334278
230	0xbc4ac794	-0.012376685
231	0x3e068f30	0.13140559
232	0xbd1cb7f0	-0.038261354
233	0x3eb78aee	0.35848182
234	0x3d15a8fe	0.036538117
235	0xbe81f3d9	-0.25381353
236	0xbf131e97	-0.5746855
237	0x3b3e0f15	0.0029000689
238	0xbd131d4a	-0.035916604
239	0xbbaf4a72	-0.0053494507
240	0xbf1b269e	-0.606058
241	0xbe8d99d7	-0.27656433
242	0xbe4ca8d6	-0.19986281
243	0x3c95d740	0.018291116
244	0xbdf105fe	-0.11768721
245	0x3ea5e119	0.32398298
246	0x3c2e2f7f	0.010631441
247	0x3d7373fa	0.059436776
248	0x3ea77407	0.3270571
249	0xbf16b205	-0.58865386
250	0xbf08c569	-0.53426224
251	0x3c72ce62	0.014819713
252	0x3ea85741	0.3287907
253	0x3bd452fb	0.0064796186
254	0xbc0102a1	-0.007874162
255	0xbd4e4104	-0.050354972

linear2.bias f4 [3]
0	0x3ec88e04	0.3917085
1	0x3db11033	0.08645668
2	0xbc64d93d	-0.013967809
